yolo_v4/tests/net02.pt (torch_old, 1029 bytes, 2 tensors)

inputs f4 [2, 1, 5, 5]
0.3019608 0.34901962 0.34901962 0.3529412 0.30980393 0.34901962 0.34117648 0.36078432
0.3647059 0.30588236 0.3137255 0.30980393 0.36862746 0.3254902 0.28235295 0.27450982
0.29411766 0.3764706 0.32156864 0.24313726 0.3019608 0.36862746 0.34117648 0.2901961
0.28235295 0.9372549 0.75686276 0.9137255 0.9882353 0.972549 0.9137255 0.6862745
0.78039217 0.92156863 0.972549 0.9254902 0.627451 0.76862746 0.81960785 0.93333334
0.9843137 0.81960785 0.78039217 0.7647059 0.8509804 0.9529412 0.827451 0.78039217
0.7647059 0.83137256
00000000: 9b9a 9a3e b3b2 b23e b3b2 b23e b5b4 b43e
00000010: 9f9e 9e3e b3b2 b23e afae ae3e b9b8 b83e
00000020: bbba ba3e 9d9c 9c3e a1a0 a03e 9f9e 9e3e
00000030: bdbc bc3e a7a6 a63e 9190 903e 8d8c 8c3e
00000040: 9796 963e c1c0 c03e a5a4 a43e f9f8 783e
00000050: 9b9a 9a3e bdbc bc3e afae ae3e 9594 943e
00000060: 9190 903e f0ef 6f3f c2c1 413f eae9 693f
00000070: fdfc 7c3f f9f8 783f eae9 693f b0af 2f3f
00000080: c8c7 473f eceb 6b3f f9f8 783f edec 6c3f
00000090: a1a0 203f c5c4 443f d2d1 513f efee 6e3f
000000a0: fcfb 7b3f d2d1 513f c8c7 473f c4c3 433f
000000b0: dad9 593f f4f3 733f d4d3 533f c8c7 473f
000000c0: c4c3 433f d5d4 543f

layer_1.0.weight f4 [1, 25]
0.09569957 -0.14782391 -0.07062376 0.16762821 -0.15923645 0.09924626 0.011915138 0.16632573
0.03892144 -0.015347032 -0.08659717 -0.18262362 0.19143428 0.0246946 0.0409459 -0.08174209
-0.16106504 -0.14202896 -0.034674782 -0.0074401656 0.16248247 0.05526276 0.18479417 0.081226036
0.18978867
00000000: 23fe c33d 275f 17be 31a3 90bd bba6 2b3e
00000010: e10e 23be a041 cb3d b637 433c 4b51 2a3e
00000020: 166c 1f3d 1e72 7bbc db59 b1bd b001 3bbe
00000030: 5907 443e 544c ca3c e3b6 273d 6668 a7bd
00000040: 3cee 24be 0a70 11be 2507 0ebd a2cc f3bb
00000050: ce61 263e 345b 623d af3a 3d3e d659 a63d
00000060: f657 423e
