yolo_v4/tests/net01.pth (torch_old, 8192 bytes, 1 tensors)

weight f4 [1, 25]
0	0x3db3a3fe	0.087715134
1	0xbe1df5e6	-0.15425834
2	0xbda090a3	-0.07840087
3	0x3e2308f3	0.15921383
4	0xbe2b8ae3	-0.167522
5	0x3dbb542e	0.091469154
6	0x3bc75ba0	0.0060839206
7	0x3e238623	0.15969138
8	0x3cfe99c0	0.031079173
9	0xbcc19a28	-0.023633078
10	0xbdc17e6d	-0.09447942
11	0xbe40775a	-0.18795529
12	0x3e3d56d9	0.18490161
13	0x3c9129d0	0.017720133
14	0x3d072334	0.032992557
15	0xbdb8978a	-0.09013279
16	0xbe2c1396	-0.16804346
17	0xbe183aad	-0.14866133
18	0xbd28ac28	-0.041179806
19	0xbc70bd30	-0.014693543
20	0x3e1e1189	0.15436377
21	0x3d458940	0.048226595
22	0x3e366ee1	0.17815734
23	0x3d990542	0.07471706
24	0x3e3b17d3	0.18270807
